src/pretrain/nn_model_ep_155400.pth (torch, 831813 bytes, 31 tensors)

fc1_actor.weight f4 [128, 1]
000000 01 62 68 bf 06 67 63 3f 64 1c 28 bf 09 b0 8b 3e
       -0.9077454 0.88829076 -0.6566832 0.27282742
000010 56 5e 19 3f 5d 90 6b bf d7 b6 94 bf 18 0a 65 3f
       0.5990957 -0.92017156 -1.1618298 0.89468527
000020 11 e8 a6 bf 68 5f 8c be 3a 0c 73 bf 54 0c 64 be
       -1.3039571 -0.2741654 -0.9494053 -0.22270328
000030 6c 6b bc be 03 19 b8 be 64 5c b1 bf 91 19 54 3f
       -0.36800706 -0.35956582 -1.385632 0.8285151
000040 40 e7 2c bf 7a cd a9 3f e8 b8 30 be 04 d0 a7 3f
       -0.6754036 1.3265831 -0.17258036 1.3110356
000050 1b 03 c5 be 55 ac c3 3f 34 f2 a2 3e 8a 3d 50 3f
       -0.38478932 1.5286967 0.3182541 0.813439
000060 8a 40 42 bf 20 a1 3e 3e 9e 20 cf be d0 09 8f 3d
       -0.7587973 0.18616152 -0.40454572 0.069842935
000070 ce 82 74 3f 68 27 72 be 3c 57 06 bf 31 81 1a bf
       0.9551209 -0.23647845 -0.5247686 -0.6035338
000080 95 15 61 bf e5 57 b3 bf 82 85 1f bf 9c 75 cf be
       -0.87923557 -1.4011198 -0.6231309 -0.40519416
000090 46 7b b4 3f 9f 8f a0 bf 0c 24 e4 be e2 30 14 bf
       1.410012 -1.254383 -0.44558752 -0.5788709
0000a0 77 46 ac bf 3e 73 73 bf 71 c3 a2 3f 7e ce 60 3f
       -1.3459004 -0.9509772 1.2715894 0.8781508
0000b0 1c e6 3c bf 53 08 98 3f a4 fd 91 3e fb 28 04 3f
       -0.7378862 1.187754 0.28513825 0.5162503
0000c0 65 2a bb bf c4 b9 c7 3e fc 96 ec be fc 65 a5 3f
       -1.4622313 0.39008915 -0.46208942 1.2921748
0000d0 cc e2 94 be 71 d2 39 3f f5 c8 a7 bf a8 4c a5 3e
       -0.29079282 0.72586733 -1.3108202 0.32285047
0000e0 bd 9c 3d 3f f6 65 07 bf 70 cf 87 bd 20 3a 96 bf
       0.7406729 -0.52889955 -0.066313624 -1.1736488
0000f0 c0 cd b0 3d f3 67 34 bf 03 2f 4d 3f f1 a4 9f 3f
       0.08632994 -0.70471114 0.8014986 1.2472211
000100 b0 df b4 be 0a f3 9c 3f 7f 88 35 bf 0c 50 8e 3f
       -0.3532691 1.226167 -0.709114 1.1118178
000110 a2 91 23 bf 82 3b 18 3f 48 b4 84 3f 62 c7 98 3f
       -0.63894093 0.594658 1.0367517 1.1935847
000120 77 79 4b 3f 1a e9 fe 3e 3e fe 2d bf 8b 74 24 bf
       0.79482216 0.49787217 -0.6796607 -0.6424033
000130 e0 3a b2 bf 14 60 ae be 7a 05 b1 3f 10 da 04 3e
       -1.3924217 -0.34057677 1.3829796 0.12973809
000140 b0 0e 11 3e e6 ab ec 3e 48 80 53 3e dc 41 1d 3f
       0.14165759 0.46224898 0.20654404 0.6142862
000150 37 f9 23 3f 20 77 7a 3e d0 35 41 3e e1 ba a7 bf
       0.64052147 0.24459505 0.18868184 -1.3103906
000160 d8 82 86 3e f4 1d 16 3f 20 b0 f5 3d 98 ea 8a be
       0.262717 0.58639455 0.11996484 -0.27132106
000170 4c f8 09 bf 9b fc a6 bf dc 4f df be 34 3b 44 3f
       -0.53894496 -1.3045839 -0.43615615 0.76652837
000180 a0 9f 80 be 04 89 e0 be 86 fd 4e 3f 60 d5 0b 3f
       -0.25121784 -0.43854535 0.80855596 0.5462246
000190 2b f6 99 be 60 d8 6d be 65 f4 44 3f d4 18 8a bf
       -0.30070624 -0.23227072 0.76935416 -1.0788827
0001a0 48 5d 43 3e c0 64 8c bf 73 74 bc bf 20 e8 52 bf
       0.19078553 -1.0968246 -1.4723037 -0.82385445
0001b0 12 5f 02 bf da e1 09 bf 7b fa 98 bf d2 a8 87 3f
       -0.50926316 -0.5386025 -1.195144 1.0598395
0001c0 18 30 13 bf 83 a0 12 3f 68 82 d0 3e ae 28 34 bf
       -0.5749526 0.5727617 0.40724492 -0.7037457
0001d0 88 42 8a be 60 f9 d2 3d b8 86 9f 3f 47 59 40 3f
       -0.27003884 0.10301471 1.2462988 0.75136226
0001e0 48 f8 0b 3f 9b 88 b4 bf 98 f4 51 be 6e c7 27 3f
       0.5467572 -1.4104189 -0.20503461 0.6553868
0001f0 50 fb d5 3d 3d d6 9a bf b4 04 fb 3e 5c 65 4d bf
       0.10448325 -1.209663 0.49027026 -0.8023279

fc1_actor.bias f4 [128]
000000 1e 7b 0a 3f e7 70 24 bd 09 80 2f 3e 7b 31 68 3e
       0.5409411 -0.040146735 0.17138685 0.22675125
000010 54 a2 af bc e8 12 10 3f 51 7a 01 3f 35 da d4 be
       -0.021439709 0.5627885 0.50577265 -0.4157273
000020 09 ec 31 3f db cf 90 3e fe ba 85 3e 82 73 32 3e
       0.69500786 0.2828358 0.26119226 0.17426875
000030 bc d1 3f bf 76 b5 09 3f ca 39 53 3f 38 26 be be
       -0.74929404 0.5379251 0.82510054 -0.37138534
000040 00 f6 03 bb 74 8b 93 bd ca 9e 77 bf 05 c7 1d bf
       -0.002013564 -0.07204333 -0.9672667 -0.61631805
000050 62 0b a1 3e 11 ea ab bd b1 96 91 3e 74 28 1a bd
       0.31453997 -0.08394254 0.2843528 -0.037636235
000060 20 27 27 bf 1a f2 51 bf 9b 66 46 3e a2 ea 78 bf
       -0.65294075 -0.8201004 0.19375078 -0.9723302
000070 20 58 3f bd 2e b1 2c bf d9 d3 f4 3e 91 d7 0e 3f
       -0.046714902 -0.67457855 0.47817877 0.5579768
000080 32 f8 66 3e 48 24 c6 3e e4 9d df be 01 bc ce 3e
       0.22555616 0.38699555 -0.43675148 0.4037781
000090 3a 34 be be e7 db 35 3f 12 49 2f bf c4 e1 1b bf
       -0.3714922 0.7103867 -0.6847087 -0.60891366
0000a0 f7 86 32 3f 1a 68 08 bf 25 6c 0c bf 10 64 71 bf
       0.6973719 -0.53283846 -0.54852515 -0.9429331
0000b0 80 87 4e bc 7b c7 81 bd 5c c7 01 bf eb 6a a9 bb
       -0.012605548 -0.06336876 -0.50694823 -0.0051702163
0000c0 e1 f8 6e 3f 5c 1d 4e bf 00 31 88 be 40 07 2e bc
       0.9334851 -0.8051355 -0.26599884 -0.010621846
0000d0 e8 44 53 bf 62 6b 9e be e8 d2 16 3f 84 a4 0e bf
       -0.8252702 -0.30941302 0.5891557 -0.5571978
0000e0 15 e9 fb bc 78 92 09 3f b0 7e 3f bf ce aa 02 3f
       -0.03075079 0.5373912 -0.74802685 0.5104188
0000f0 e0 b5 da be 89 4a 9c 3e 75 3b f0 3d 5c 40 87 bd
       -0.42716885 0.30525616 0.117300905 -0.066040725
000100 48 7d 70 bf 27 80 13 bf c8 79 46 3e 07 91 7c bd
       -0.93941164 -0.5761742 0.19382393 -0.061661746
000110 c6 0b 99 3e 24 03 aa bc d0 c4 e1 3d 1b f2 94 be
       0.29891795 -0.02075345 0.11023867 -0.29090962
000120 6b ed a9 be b2 98 ff be e4 e7 a3 be 84 43 26 3f
       -0.33188948 -0.49921185 -0.32012856 0.6494677
000130 23 4c 21 3f 90 c8 25 be 7f 0c 25 bf f6 af 08 bf
       0.630068 -0.1618979 -0.6447219 -0.53393495
000140 64 13 f1 be b3 8f e1 3e fe e9 2e bf ec a4 64 3e
       -0.47085106 0.44054946 -0.68325794 0.22328538
000150 7e cd c4 bc da 12 58 bf 06 c1 3a bf 5a a1 35 3f
       -0.024023768 -0.84403765 -0.7295078 0.7094933
000160 78 88 0b bf 44 f9 19 bf b0 8d 24 bf 30 7a b9 be
       -0.5450511 -0.60145974 -0.642787 -0.36226034
000170 ef 7d 9c 3e fc a3 41 3f 17 3f b5 3e c7 8d 0b bd
       0.3056483 0.75640845 0.35399696 -0.034070756
000180 68 38 7b bf a0 ee 48 be 66 72 6c bf 44 85 3f bf
       -0.98132944 -0.19622278 -0.9236206 -0.7481272
000190 f4 eb 9d 3e 84 04 b2 be 1a f3 76 3d d1 51 98 3e
       0.3084408 -0.3476907 0.060290433 0.2974992
0001a0 f6 5e 1c bf 65 40 f3 3e 42 4f 60 3f cc 2c 4f 3f
       -0.610824 0.47510067 0.8762094 0.8092773
0001b0 d8 71 30 bf de b0 09 3f 84 47 06 3f 55 e9 5c bd
       -0.6892371 0.537855 0.52452874 -0.05393346
0001c0 30 d7 11 3e e1 71 4d 3d fd 2b 09 be 32 97 51 bf
       0.14242244 0.05015743 -0.13395686 -0.8187133
0001d0 60 9a 60 be da c6 77 bf 02 fb 12 bf bc 7d 08 bd
       -0.2193389 -0.967878 -0.5741426 -0.033323035
0001e0 60 b2 2a bf e3 10 1f 3f 8a 22 6f bf d2 2e 45 bf
       -0.6667843 0.6213514 -0.9341208 -0.7702457
0001f0 4a d2 36 bf c8 99 0d 3f 88 31 09 bc 7d 62 44 3f
       -0.71414626 0.55312777 -0.008373626 0.7671278

fc2_actor.weight f4 [128, 1]
000000 92 f0 70 be f6 95 85 be 67 c1 2c 3e d2 0d 2d bf
       -0.2352927 -0.26090974 0.16870652 -0.67599213
000010 f2 b5 a9 bd 58 c2 6b bf 50 91 06 bf 42 25 0d bf
       -0.082866564 -0.9209342 -0.5256548 -0.55134976
000020 3f df ee 3d 40 11 c5 bc 6b 28 0c 3f 45 c9 17 be
       0.116636746 -0.024056077 0.5474917 -0.14822872
000030 60 a0 17 bf 34 21 09 3f fa 74 fd be c0 d1 8d bc
       -0.5922909 0.5356629 -0.4950331 -0.01731193
000040 e2 55 6c ba a8 ff 96 bd f0 cc d5 be 36 17 14 3f
       -0.0009015483 -0.07372981 -0.41757917 0.5784792
000050 f0 2a 3a bd d9 90 0e bf 70 25 e8 3d 55 c2 f7 3e
       -0.045451105 -0.5568977 0.11335266 0.4839045
000060 18 08 cc be b5 da c9 bd 4c 32 45 be a0 5c 2c 3d
       -0.39849925 -0.09856168 -0.19257468 0.04208052
000070 89 ec 38 3f b2 90 6d bf 35 71 68 bf c0 e7 f7 be
       0.72235924 -0.9279891 -0.9079774 -0.48419
000080 38 a5 5a 3f 4f b6 94 bd c6 b0 6e be b9 e2 de 3d
       0.85408354 -0.07261335 -0.23309621 0.10883088
000090 bc 69 c3 bc 89 e2 36 3e ee b0 ad 3e 90 74 60 3f
       -0.023854129 0.17859854 0.3392405 0.8767786
0000a0 70 59 3d bf 80 2b 88 bc c0 83 ce bc 04 be 1f bf
       -0.73964596 -0.016622305 -0.025209308 -0.62399316
0000b0 34 1c 86 3d b3 36 b3 be 68 85 8d 3b 61 6f 12 3a
       0.06548348 -0.3500267 0.004318882 0.0005586055
0000c0 07 e5 cf 3c bc 8a 34 3f 80 08 6f bf 40 42 4a 3f
       0.025377763 0.7052419 -0.93372345 0.7900734
0000d0 97 c3 0f 3d 69 5e c6 3c cb 2b 51 bf 26 72 24 3d
       0.03509864 0.02421494 -0.8170745 0.040147923
0000e0 88 fc c6 3e ba 8e 6d bf 4c 1f 9d 3e 92 9f 51 bf
       0.3886454 -0.9279591 0.3068794 -0.8188411
0000f0 9b 85 2e 3f d2 a4 de 3e e8 b2 eb be 46 ae 82 bd
       0.68172616 0.43485123 -0.46034932 -0.06380896
000100 12 61 83 bd 56 02 da be c9 fc 0f 3e a0 83 8f 3d
       -0.06414999 -0.42579907 0.14061274 0.07007527
000110 d9 96 36 3f d8 8b 93 be 39 b1 96 3e b4 82 39 bf
       0.71323925 -0.2881763 0.29432085 -0.7246506
000120 a0 82 24 be f9 d8 c2 bc 61 9a d1 be d4 51 19 bf
       -0.16065454 -0.023785101 -0.40938094 -0.59890485
000130 1a 1d 71 be 90 12 9c bd 80 f7 4d be c6 7a 91 3e
       -0.23546258 -0.07620728 -0.20113945 0.2841398
000140 20 12 29 be 32 81 1f bf ac 39 16 be 7e 18 50 bf
       -0.1651082 -0.6230651 -0.14670438 -0.8128737
000150 30 54 1c be 11 b2 e7 3e db 24 97 3b 64 aa e9 3d
       -0.1526649 0.4525304 0.004612548 0.114094526
000160 30 97 1a 3e 3d a5 b5 3c 24 4b c0 be c2 6d cb bc
       0.15096736 0.022173518 -0.37557328 -0.02483261
000170 a8 c7 48 3f 7d ea 00 bf fd 10 02 3f 38 5b a1 3e
       0.7842965 -0.503578 0.5080717 0.31514907
000180 04 62 b8 be 00 09 4d 3c cc a3 b5 be 20 70 00 be
       -0.3601228 0.012514353 -0.3547653 -0.12542772
000190 54 8a 2e 3f 87 28 5d 3e ad 4c a3 bd 70 0c bc be
       0.6817982 0.21597491 -0.07973609 -0.3672824
0001a0 dd 8d 4a bd a9 15 f8 3d 51 2a 5e bd 90 6e dd be
       -0.049451698 0.12113506 -0.054239575 -0.43248415
0001b0 5e 2b 28 bd 2a 19 c5 3e 0d 5f 60 bf 6e e5 1d bf
       -0.041056983 0.3849576 -0.87645036 -0.61678207
0001c0 d4 6c a2 bd 90 9b 18 bf 44 79 e6 be 30 e8 4b bf
       -0.079309136 -0.5961237 -0.45014393 -0.79651165
0001d0 59 24 c0 3e e8 b5 d5 be 30 8b 15 bf 50 4c fe bd
       0.3752773 -0.41740346 -0.5841551 -0.12416899
0001e0 04 9d 53 bf ef 2d 1b bf 71 ae 08 3f f9 2b 2e 3f
       -0.8266146 -0.60616964 0.53391176 0.68035847
0001f0 32 52 59 be fc f2 3f bf e4 32 ff be 42 0a d6 3d
       -0.21222761 -0.7498014 -0.49843514 0.10451175

fc2_actor.bias f4 [128]
000000 15 1c 04 3f 98 be 27 3f db 63 d5 be 91 0e 84 3f
       0.5160535 0.655252 -0.41677746 1.0316945
000010 f0 fe 01 3f 32 f6 38 bf c0 fe 46 3d 08 21 7f be
       0.5077963 -0.72250664 0.048582792 -0.24914944
000020 a3 cb f2 3d 4c 15 2f bf 77 17 e4 be df e3 6d 3f
       0.11855247 -0.6839187 -0.44549152 0.9292583
000030 92 30 16 3f 12 da d1 be e8 09 5c 3f e8 6d 4e bf
       0.5866786 -0.40986687 0.85952616 -0.80636454
000040 23 81 32 b8 0e 42 14 3e c0 50 da 3d 54 26 64 bf
       -4.2558775e-05 0.14478323 0.10659933 -0.89120984
000050 66 18 8e 3c af 16 61 3f 7e ee 6c bf fd bf 41 bf
       0.017345618 0.8792524 -0.9255141 -0.75683576
000060 e8 7c 6c bf 05 74 21 3f cc 32 61 3f 70 f2 bc be
       -0.9237809 0.63067657 0.87968135 -0.36903715
000070 f2 01 89 bf 08 c5 2d bf 99 bc 7a 3f 88 0e 65 bf
       -1.0703719 -0.6787877 0.9794403 -0.894753
000080 32 e5 0f bf f6 b7 f9 3e 5b 00 04 3f a7 b2 8e be
       -0.562091 0.48773164 0.5156304 -0.27870676
000090 57 d5 4b 3e 57 28 d9 be e6 52 db be f9 f8 08 bf
       0.19905601 -0.4241359 -0.42836684 -0.535049
0000a0 d6 91 07 bf e8 ee 7a be 7a fa 43 bf a1 11 19 3f
       -0.52956903 -0.24505198 -0.7655407 0.59792525
0000b0 c6 d5 b2 bd 4e 76 63 3f 95 ba de bc 4c 6f 72 bb
       -0.0873218 0.88852394 -0.027188579 -0.0036992608
0000c0 c4 c3 20 be d6 34 82 bf 18 a0 27 3e e6 19 00 bf
       -0.15699679 -1.0172374 0.16369665 -0.5003952
0000d0 c1 d4 59 be 8b 92 19 be 16 45 6d 3f db 62 77 be
       -0.21272565 -0.14997308 0.9268354 -0.24158804
0000e0 18 1b a2 be 52 ba 87 3f c7 c8 07 bf d4 87 92 3e
       -0.31661296 1.0603735 -0.53040737 0.28619254
0000f0 cc bd dc be 72 a6 63 bf 10 48 27 bf 76 5e b3 3e
       -0.43113554 -0.8892585 -0.65344334 0.35033005
000100 a3 2f c4 3e 66 63 6c 3f 9b 68 dd be fe 25 5a bf
       0.38317594 0.9233917 -0.4324387 -0.8521422
000110 d9 92 06 bf f0 16 eb 3d 41 91 20 bf 76 37 1e bf
       -0.5256782 0.11478984 -0.6272164 -0.61803377
000120 1a 5e 62 bf 9f 71 38 3e d7 3a 7c 3f d6 3e 11 bf
       -0.8842484 0.18012093 0.9852728 -0.56736505
000130 d3 11 de 3e d0 44 83 be b8 ce 10 be 7f 0f 10 bf
       0.43372974 -0.25638437 -0.14141357 -0.56273645
000140 84 b8 03 bf dc 66 22 bf c9 d6 a3 3e 42 d7 6c 3f
       -0.51453424 -0.634382 0.31999806 0.9251596
000150 6c 0a 48 bf 1e 56 eb be 3d e4 e4 bc 8b 89 17 3d
       -0.781409 -0.4596414 -0.027940864 0.036996406
000160 74 0b c0 be 48 56 08 be 7c 2e 8b be 02 4e 27 3e
       -0.37508738 -0.13314164 -0.27183902 0.16338351
000170 c5 00 00 bf f8 c7 8a 3f 07 0f c3 be a5 fc 1d bf
       -0.50001174 1.0842276 -0.38097402 -0.6171363
000180 07 5e 40 3f 7c 9c c7 be 7f b5 6f 3f de 19 43 bf
       0.75143474 -0.38986576 0.93636316 -0.76211345
000190 29 de 04 bf 2b 8c 03 bf 38 f3 08 3f 70 f4 80 be
       -0.5190149 -0.51385754 0.5349612 -0.2518649
0001a0 d0 61 72 3d d9 ec 3d be 80 da ac 3e bc e3 fe be
       0.059175313 -0.18547381 0.33760452 -0.49783123
0001b0 32 9a 72 3e 0a c2 1e bf e2 6a 5e 3f d0 80 02 bf
       0.23691633 -0.6201483 0.8688184 -0.509778
0001c0 f4 e3 d6 3e 34 dc 09 bf 20 b7 15 3d c2 d5 48 bf
       0.4197079 -0.5385163 0.036551595 -0.7845117
0001d0 e7 ba 57 bf 38 c0 1d be a0 9c 0b be cc 60 52 bf
       -0.84269565 -0.15405357 -0.13633966 -0.8217895
0001e0 70 4a f5 3d 24 bf 64 3f f1 6a cd be bc 1d 27 bf
       0.119770885 0.8935416 -0.40120652 -0.65279746
0001f0 ad 63 ab 3d 99 62 3b 3f a6 3c f2 3e c8 59 a3 be
       0.08368621 0.73197323 0.47311896 -0.31904435

conv1_actor.weight f4 [128, 8]
000000 91 43 a7 3e 34 77 c2 3e 64 58 7b 3e 76 62 dc 3d
       0.32668737 0.3798157 0.24545437 0.107609674
000010 7d c4 88 3e 53 f0 68 3e a7 dc fd 3e 95 d9 81 3f
       0.2671241 0.22747926 0.49582407 1.0144526
000020 ce 58 47 3e e0 e9 d4 3e 7c 1d 04 3c 03 6d 57 3e
       0.1946747 0.41584682 0.00806367 0.21037678
000030 44 83 a4 3e f5 c6 a9 3e 24 2a 76 be d8 53 1f bf
       0.32131398 0.33159605 -0.24039513 -0.6223731
000040 00 26 eb 3e 72 dc 7e ba c2 91 01 3f 90 10 21 be
       0.4592743 -0.000972218 0.50613034 -0.15728974
000050 96 f4 63 3e c1 5f 95 3e 60 15 fc 3e 57 2e d4 3e
       0.22261271 0.29174617 0.49235058 0.41441604
000060 74 08 97 3e fd f6 2f 3e 3f 09 e6 bd 41 8d af 3b
       0.29498637 0.17184062 -0.11232232 0.005357415
000070 6b 02 bd be 13 f3 7f 3e 95 9e a4 3e 27 15 43 3f
       -0.36915907 0.24995069 0.32152238 0.7620415
000080 66 be 2c be 4b 31 9d 3e 9e ee ff 3d f9 33 8a be
       -0.16869506 0.3070167 0.124966845 -0.26992777
000090 e0 ed e9 bd c3 7b 17 3e 49 3b aa be 12 3d 3e bf
       -0.11422324 0.14793305 -0.33248356 -0.74311936
0000a0 15 32 8b be 3e 00 ec be 26 f3 f6 3d c9 c6 45 3c
       -0.27186647 -0.46093935 0.12058096 0.01207132
0000b0 d1 37 d2 bd bf fe ad be 2b 88 b6 bc 52 dc 04 bf
       -0.102645524 -0.33983418 -0.022281727 -0.5189868
0000c0 46 74 b4 bc 9f 1c 3e 3e e0 d0 98 3e 53 cb 0d 3f
       -0.0220281 0.18565606 0.2984686 0.55388373
0000d0 77 43 2d 3e 2c bb 44 3e d0 46 73 bd 34 bf 05 3f
       0.16920267 0.19212025 -0.059393704 0.5224488
0000e0 29 dd 49 be 9f 3e 0d bd fd 17 94 be 90 a0 01 be
       -0.19713272 -0.03448355 -0.28924552 -0.12658906
0000f0 fb e7 09 be 2c e5 94 3e 1e 03 e6 3e b2 d0 e9 bd
       -0.134674 0.29081094 0.44924253 -0.114167586
000100 42 85 98 3e 20 71 27 3e 50 f4 3e 3e c0 7d b4 3d
       0.29789168 0.16351748 0.18647885 0.088130474
000110 74 77 61 3e a7 1d dc 3e 9d 52 9f 3e d8 e9 0f bf
       0.22018224 0.42991373 0.31117716 -0.5621619
000120 13 43 1f 3d 9a b5 df be 39 8e fe 3d 2f ba 62 bd
       0.038882326 -0.43693238 0.124294706 -0.05535334
000130 b7 12 b1 3d e4 7e f2 be 7c 16 c7 bd 29 3b cf 3e
       0.08646148 -0.47362435 -0.097210854 0.40474823
000140 1c ad b7 bd 62 de b7 3e 40 e0 38 3e 45 84 bb 3e
       -0.08968565 0.35911852 0.18054295 0.3662435
000150 ef 63 44 3e b3 04 aa 3e d2 5d 9f 3e e5 a5 06 bf
       0.19178747 0.3320671 0.31126267 -0.52596885
000160 02 da 2a 3e e7 5d 96 bd 3d 42 92 be 26 f4 8b bc
       0.16684726 -0.07342129 -0.2856616 -0.017084192
000170 75 0f b7 be 34 fe a5 be fd 98 2e 3e b5 c7 17 be
       -0.3575398 -0.32420504 0.17050548 -0.14822276
000180 05 d1 09 3f a4 63 e3 3e 76 91 2a 3e c1 8b a4 bd
       0.53834563 0.44411957 0.16657051 -0.080344684
000190 bc c8 bd bb 81 9a fb 3e f1 32 98 3e 7b 6e df 3e
       -0.0057917517 0.49141315 0.29726365 0.43638977
0001a0 f0 cf 89 3e 43 a6 9a 3e 03 98 82 be 88 11 9d 3e
       0.26916456 0.30204973 -0.255066 0.30677438
0001b0 61 34 8e 3e 9f 42 7f bd 8c 7a 19 3e ee f4 5c 3f
       0.27774337 -0.062319394 0.14988154 0.86311233
0001c0 b3 7c a3 3c cf 00 5d be c6 c9 15 3d e2 e5 ca be
       0.019956922 -0.2158234 0.03656938 -0.39628512
0001d0 00 76 8c be 7a a7 05 bf e9 5f 51 be 5e 76 f9 3e
       -0.27433777 -0.52208674 -0.20446743 0.4872312
0001e0 19 5e 39 be dd b4 78 be a8 70 a0 be de f2 6a be
       -0.18102302 -0.24287744 -0.3133595 -0.22944209
0001f0 93 5a 23 3d c9 1b 2d 3e fd 80 32 be d1 73 41 bf
       0.0398813 0.1690513 -0.17432018 -0.75567347
000200 ef f5 f1 bc 30 96 e0 bd e8 5c e1 bd 8e c9 44 bd
       -0.029536216 -0.10966146 -0.110040486 -0.04804378
000210 2c 89 5c be 93 78 11 3e 26 93 8a be ee 6b 85 be
       -0.21536702 0.14206152 -0.2706539 -0.26058906
000220 10 0d b9 be 92 80 44 be 4d 15 87 be 88 3b 34 3e
       -0.36142778 -0.1918967 -0.2638344 0.17600834
000230 fb 95 88 bd ae 48 0f bd ca 96 13 bf ac 2c 1d bf
       -0.066692315 -0.034981422 -0.5765196 -0.6139629
000240 ae 65 55 3e 1f 20 24 be 4a 5c 03 be a8 c5 3d bd
       0.20839569 -0.16027878 -0.12828174 -0.046331078
000250 d0 91 04 be e6 9b 37 3d 74 e0 74 3d f6 8a 71 bf
       -0.12946248 0.04482641 0.059784368 -0.9435266
000260 a8 23 fc be 4e 6a 8a 3e 5c c1 e1 be d1 8d 75 3d
       -0.49245954 0.2703423 -0.44092834 0.0599497
000270 5d e1 34 be 7b 05 64 be 50 60 1e bd f3 93 3f bf
       -0.17664094 -0.22267716 -0.03866607 -0.7483513
000280 d5 19 4e 3e 4b 0d c9 be bb 91 e3 be 5f 60 94 bd
       0.20127042 -0.39267954 -0.4444712 -0.07244944
000290 19 99 24 be 72 a5 ad 3d 57 91 42 3e bc 46 e3 3e
       -0.16074027 0.08478822 0.19000755 0.44389904
0002a0 0c e4 30 3d 4b 31 b1 3d 4b e2 6a 3e 36 54 3f be
       0.043186232 0.0865198 0.22937886 -0.18684468
0002b0 bf 35 38 3d b5 87 a3 3e 11 08 89 3e 76 f2 51 3f
       0.04497313 0.31939474 0.26763967 0.8201059
0002c0 9e f5 67 bd a3 cb 06 bf 31 f6 7a 3d 43 cd e6 be
       -0.056630723 -0.52654475 0.061269943 -0.45078477
0002d0 07 a7 c7 be 34 1f bd bd ba 78 a0 be ab 22 98 be
       -0.3899462 -0.09234467 -0.31342107 -0.2971395
0002e0 98 00 46 3e 13 d6 c3 bd df f4 2a be 5c a3 2e 3e
       0.19336164 -0.09562316 -0.16694973 0.17054504
0002f0 5c 6b 3a 3e 20 d7 b4 3c 8b 8f 05 3e 70 01 49 3f
       0.18205017 0.022075236 0.13043039 0.7851782
000300 50 55 11 3e c6 0d 51 bd c5 d9 b1 be fe be 98 3e
       0.141927 -0.051038526 -0.34736457 0.29833215
000310 a4 23 75 bc fd f6 3b be 7a 2d 72 be eb 04 89 bf
       -0.014962111 -0.18355937 -0.2365016 -1.0704626
000320 de d4 36 be 19 ca 82 be 90 f2 00 3d e5 3a 2e be
       -0.1785464 -0.25544813 0.031481326 -0.17014654
000330 6b 46 35 be 34 cc 51 be a8 c6 a9 be ad f9 f9 be
       -0.17702644 -0.20488054 -0.33159375 -0.488233
000340 9c 03 9d be 9d db 6f 3e 9e a9 13 3e e3 13 7e 3e
       -0.30666816 0.2342362 0.14420173 0.24812274
000350 f0 08 af be d8 3d 16 be 23 a8 15 bc a4 59 5d bf
       -0.34186506 -0.14672029 -0.009134325 -0.86464906
000360 6c ca 11 3e 2f 86 2a be d4 65 8a bd 97 1a 09 be
       0.14237374 -0.1665275 -0.067577034 -0.1338905
000370 4a bc 04 be b4 7f 70 3e 2d 0d c9 3e f7 7b 47 3f
       -0.12962452 0.23486215 0.39267865 0.7792353
000380 e5 1f 8e 3d 8e dc 64 3c f2 63 2f bd 8a 4e 29 3c
       0.06939677 0.0139686 -0.042819925 0.010333667
000390 8d d5 d5 3d 92 c2 92 bd 00 69 b2 be 5b 48 4e bf
       0.10441122 -0.071660176 -0.34845734 -0.80579156
0003a0 aa 41 22 3e af 60 c8 3e 7f 51 9a 3e 58 fe 56 3e
       0.15845361 0.39136264 0.30140302 0.20995462
0003b0 5c e2 71 3d f6 e6 fd bd c7 8a 25 be 63 99 3f 3f
       0.059053764 -0.12397568 -0.1616622 0.74843425
0003c0 06 a8 db bc 3a a9 ab be 1c 7d 41 3e 49 d4 d9 be
       -0.026813518 -0.33527547 0.18895382 -0.42544773
0003d0 4b 04 ab 3d 08 fb b9 be 07 4a cc be 75 34 4b bf
       0.08350428 -0.36324334 -0.39900228 -0.7937692
0003e0 b9 b7 cc 3e b9 e6 9d 3e 4b e5 5d 3e 60 b6 a5 3e
       0.3998392 0.3084009 0.216695 0.32365704
0003f0 8d 1f 06 3f 04 24 7b 3e 7e cc 4a 3e 01 b2 11 be
       0.5239189 0.24525458 0.1980457 -0.1422806

conv1_actor.bias f4 [128]
000000 7e ab 14 be 31 1a f3 bd 16 b9 a1 be ed 82 8e bd
       -0.14518544 -0.1187023 -0.31586522 -0.06958566
000010 9c 99 92 3e 65 4d 95 3e 79 a0 e6 bd 23 82 7f bd
       0.2863282 0.2916061 -0.112610765 -0.062379967
000020 d5 2e 92 be 41 d5 3e 3e 9d fd a1 be 1e 89 c7 bd
       -0.28551355 0.18636037 -0.31638804 -0.0974295
000030 ff 51 8e be 76 29 c4 bd df 73 da 3d e0 10 9c 3e
       -0.27796933 -0.095782205 0.10666632 0.30481625
000040 7a 3f 69 be 2c ea b8 3e af 33 c7 3e cf 42 c4 3e
       -0.2277812 0.3611616 0.3890662 0.3833222
000050 fb a4 2e bd 60 ba a9 bd 99 ba 46 3c 29 3a 94 bd
       -0.042637806 -0.08287501 0.012129449 -0.07237656
000060 62 28 c4 3e 93 51 a8 3e 42 dc d7 3e 58 7e a3 bd
       0.3831206 0.32874736 0.4216023 -0.079830825
000070 49 95 c8 3e a0 98 82 bd 5f 13 bd 3e d5 41 c9 be
       0.39176396 -0.06376767 0.3692884 -0.39308038
000080 38 4a 87 bd 72 6c 7f be 06 85 a3 be 75 9e bb 3e
       -0.06605953 -0.24943712 -0.31937426 0.3664433
000090 db 05 06 3e ad 5c f6 bd 22 8a 2a 3e 6b 2b 4c 3e
       0.13088171 -0.12029395 0.16654256 0.19938438
0000a0 9b fb 6a bd f0 d8 a4 bd 8d 8a 0e be 0d 1a b1 3e
       -0.057368856 -0.0804919 -0.1392004 0.34590188
0000b0 02 fa bb 3e 72 9b 36 be 95 1e c1 3e 5a aa bc bd
       0.36714178 -0.17832735 0.37718645 -0.092121795
0000c0 89 7a 55 3e 6c eb 58 bd 7b b2 c3 3e 42 45 39 bd
       0.20847525 -0.05295889 0.38222107 -0.045232065
0000d0 1d a4 c8 3e 5c 40 87 bd 15 f9 86 be 72 45 8d 3d
       0.39187708 -0.066040725 -0.2636191 0.06898011
0000e0 83 57 c2 3e b3 0e ce 3e 8c a9 5c 3e ef 9d 01 3f
       0.3795739 0.4024559 0.21549052 0.5063161
0000f0 55 ed 88 3e e4 d7 54 bd 0b 71 15 be 4d 2b c0 3e
       0.2674357 -0.0519637 -0.14593904 0.37533036
000100 35 5e 29 be 66 bb 9c 3d ca 05 c8 3e 4d 5d a0 3e
       -0.16539843 0.07652931 0.39066917 0.31321183
000110 8e ff b0 bc fa a3 bf 3e ba f6 85 be f5 2a 4c be
       -0.021606233 0.37429792 -0.261648 -0.19938262
000120 d5 86 27 be 52 3e 1c be 88 70 98 be 64 15 64 3e
       -0.16360028 -0.15258148 -0.29773355 0.22273785
000130 a3 44 19 be 9c c4 0c be d0 41 8f be 01 e0 98 bd
       -0.14967589 -0.13746876 -0.27979898 -0.074646
000140 9e 93 c3 3e f2 ea 97 be 7f 8a 61 be b6 09 7a be
       0.3819856 -0.29671437 -0.22025488 -0.24417767
000150 15 63 da 3c 56 14 34 be 83 53 b4 3e 21 c1 e3 3e
       0.026658574 -0.17585883 0.35219964 0.44483283
000160 1a 91 2f bd 30 ef 78 be b2 c0 82 3e f6 59 bb 3e
       -0.04286299 -0.24309993 0.2553764 0.36592072
000170 34 1a 8f 3e 04 2a ab be 5f cd 79 3e 35 7d d2 bd
       0.2794968 -0.33430493 0.24394749 -0.102777876
000180 1b e6 24 3d f1 13 91 be 10 2a 29 be dc c9 81 3e
       0.04025851 -0.28335527 -0.16519952 0.2534932
000190 42 56 b2 bd ef 37 0c be 86 80 a4 bc 10 52 4c 3e
       -0.087078586 -0.13693212 -0.020080816 0.1995318
0001a0 6f 0e 41 be e1 4e 91 bd 6c 96 84 3e e6 fc 8d be
       -0.18853162 -0.07095123 0.25896013 -0.2773201
0001b0 cc 31 b9 3e 9e d1 e5 bc 65 12 2c 3e 2c 34 e6 3e
       0.36170805 -0.028054055 0.16803892 0.4496168
0001c0 03 e6 ae bd a9 ff 2e be d5 85 b8 3e 6c 1b 4d 3e
       -0.08539965 -0.17089714 0.36039606 0.20029992
0001d0 f7 93 c2 3e c1 6f d4 3e 76 38 f4 bd b4 cf cc bd
       0.38003513 0.4149151 -0.119248316 -0.10000554
0001e0 97 24 a4 3e 25 b3 a0 be d3 04 1a 3e b5 58 ba bd
       0.32059166 -0.31386676 0.15040903 -0.09098951
0001f0 99 fc 7b be 80 9b b6 3e 10 cb c5 bd 23 fd b2 bd
       -0.24608077 0.35665512 -0.09657872 -0.08739688

conv2_actor.weight f4 [128, 8]
000000 8a 8a 73 be 7b 72 99 3e 9d 25 18 3d 39 50 95 3e
       -0.23783317 0.29970154 0.037145246 0.29162768
000010 cd bc 55 3e e8 a0 91 3e 41 f4 5a be df ea ac bd
       0.20872803 0.28443074 -0.21382238 -0.084432356
000020 f6 54 dc be 20 54 e9 be 52 5d 00 3d c1 19 80 3e
       -0.4303357 -0.45571995 0.031338997 0.2501965
000030 8a 73 12 be 12 ee a6 be 5b 87 a5 bc b7 ac cb bd
       -0.14301887 -0.32603508 -0.020206144 -0.09945052
000040 69 fe 35 3e ca ca d0 bd 64 9b 91 3d cb b7 9e bd
       0.17772831 -0.10194929 0.071097165 -0.077498995
000050 d8 89 ef 3d 6c 9a 8f 3e 07 5d 8f 3e b3 73 39 3f
       0.116962135 0.28047502 0.28000662 0.7244217
000060 68 1b 5c be 3a df df be 1f 3d d4 be ac 59 19 be
       -0.2149483 -0.43724996 -0.41452882 -0.14975613
000070 b8 bd c1 be 19 69 28 bd 4a fe 66 bd 36 62 19 3d
       -0.37840056 -0.041115854 -0.056394853 0.037447177
000080 39 c4 8d be 6e a5 47 be 09 75 c0 bd 2b 06 89 be
       -0.27688769 -0.194967 -0.09397323 -0.26762518
000090 3c db fd bc 04 5a 9c 3c c3 a7 b5 be 1b de a8 be
       -0.030988328 0.019085892 -0.35479555 -0.32981953
0000a0 0a df ea bd 97 5d 16 bd c5 e5 b9 3d ba 16 77 be
       -0.114683226 -0.036710348 0.09077028 -0.24129763
0000b0 52 4c fd bd e8 0b de bd b9 32 d0 be 63 3d 5d 3f
       -0.123680726 -0.10842115 -0.40663698 0.86421794
0000c0 5d f7 1e 3e d0 97 9b bd fc 69 c6 bc 09 d5 a5 bd
       0.15524049 -0.07597315 -0.02422046 -0.08097274
0000d0 10 d1 2c 3d 86 60 5c 3d 93 3b 98 3e c9 7c 43 bc
       0.042191565 0.05380299 0.29732952 -0.011931607
0000e0 8c 56 c2 3e d4 09 eb 3d f8 ff 53 be bc 4e ec bd
       0.37956655 0.11476484 -0.20703113 -0.11538455
0000f0 32 70 2b be 45 f4 ba 3d 2f 9c c5 be 9b a7 bd 3e
       -0.16742018 0.09128622 -0.3859572 0.37041935
000100 96 00 46 3e 3f 24 d7 be 64 44 54 3e 80 4b 9c 3e
       0.19336161 -0.4201984 0.20729214 0.30526352
000110 72 83 e7 bd d7 a3 cf 3e 0c 6c a8 3c 23 f1 38 3f
       -0.11304368 0.40554687 0.020559333 0.72242945
000120 3f f7 a0 3e e9 82 ce 3e e9 75 91 bc 6a 09 b4 bc
       0.31438634 0.40334252 -0.01775642 -0.021977145
000130 a3 db 4b 3e be 9b 1b 3e 55 56 37 be ef 26 33 be
       0.19908004 0.1519613 -0.17904027 -0.1749532
000140 3f dd 88 3c f9 69 a3 be 4c c5 49 3c f6 4b e9 bd
       0.01670706 -0.31916788 0.012315106 -0.113914415
000150 56 e0 7f 3e 1e 0d 56 3e 19 1a 96 3e 09 c1 b2 3e
       0.24987921 0.20903441 0.29316786 0.349129
000160 8a c5 1e 3e e3 7d 55 bd ca 38 6f 3e 6a a3 be 3d
       0.15505043 -0.052122008 0.23361507 0.093085125
000170 e8 ab 65 3d d0 30 94 bd 77 cb d6 3e 63 ab 45 bd
       0.056072146 -0.07235873 0.41952106 -0.04825915
000180 68 49 e6 be 78 43 16 be 15 0c 01 be 89 fa 7a be
       -0.4497788 -0.14674175 -0.12602265 -0.24509634
000190 07 1b 28 be 96 f7 4b 3d 45 00 96 be 01 f5 74 be
       -0.1641656 0.049796663 -0.2929708 -0.23921587
0001a0 4e 4a 46 be a5 e1 12 bd d9 7f d7 bd f7 62 0f 3e
       -0.19364282 -0.035859723 -0.10522432 0.14002596
0001b0 84 40 50 bd 54 0c 08 bf c3 d4 97 be f6 88 3a be
       -0.050842777 -0.5314381 -0.29654512 -0.18216309
0001c0 03 3b b4 3e df b8 9b 3e cb 8c a9 3e ff fc 4b 3e
       0.35201272 0.30414483 0.3311523 0.19920729
0001d0 02 96 40 3e 46 2b 76 3e 24 d7 72 3e 01 0d c2 bc
       0.18807223 0.24039945 0.23714882 -0.023687841
0001e0 b2 30 a0 bd 1b 41 1c bd a2 71 10 be 9a c2 22 3e
       -0.07821788 -0.038148027 -0.14105847 0.15894547
0001f0 62 dd 56 be 5a a6 a9 be e9 0f d0 be e6 56 92 bd
       -0.20982888 -0.3313473 -0.40637138 -0.07145481
000200 26 96 10 be a5 4d 7d bd 0e a3 30 3e 1f 51 56 3b
       -0.14119777 -0.061841626 0.172497 0.003270216
000210 80 ab dc be b1 77 b6 bd 46 b3 2d 3e 72 dd cd 3e
       -0.43099594 -0.08909548 0.16962919 0.40208012
000220 e2 e7 c4 be f4 f8 76 3e 37 44 8f be 3f 6c 0c 3e
       -0.38458163 0.24118406 -0.2798173 0.13713168
000230 75 13 ba 3b 9d f8 b1 be d2 f0 f2 bd 58 5a 1e be
       0.005678589 -0.3475999 -0.11862339 -0.15464151
000240 91 6b 85 be 7d c7 82 be b7 27 e0 3d af e1 8f be
       -0.2605863 -0.25542822 0.10945075 -0.2810187
000250 1e d7 a3 3d bb 75 10 be c5 25 86 3e da b7 56 3e
       0.08000015 -0.1410741 0.2620069 0.20968571
000260 d1 9e 1e bf d7 d8 cd be e1 77 8b be 53 1f 9c bc
       -0.61961085 -0.40204498 -0.27239898 -0.019057905
000270 3c 38 2e 3e 50 a5 dd be f5 bf a2 bb 7d 8f e3 be
       0.17013639 -0.43290186 -0.0049667307 -0.4444541
000280 32 d6 94 3e 88 42 a7 bd 36 d9 f1 be 50 f0 82 3d
       0.29069668 -0.08166987 -0.4723603 0.06393492
000290 d0 fc 1c be 6a a7 bf bc 5c 0d 80 bd 72 3e af be
       -0.15330815 -0.023395259 -0.06252548 -0.3422733
0002a0 85 b3 5c be bc 8b 8a 3d 71 e1 3d be 46 2f 51 3e
       -0.21552856 0.067649335 -0.1854303 0.2042819
0002b0 b3 04 c1 be 35 3a d6 be de 4c a0 3e bf d4 3a 3f
       -0.37698898 -0.41841283 0.31308645 0.72980875
0002c0 49 61 ed bc cf d5 24 be 18 c4 ae 3d bc 77 2c 3d
       -0.028977053 -0.16097187 0.08533496 0.042106375
0002d0 77 ab 7e bb 19 e3 e1 be 69 98 d6 be c6 8f f8 be
       -0.0038859525 -0.44118574 -0.41913155 -0.4854719
0002e0 18 c1 b1 be 0a 30 a9 be 3e d4 b5 be 5d 87 61 be
       -0.3471763 -0.33044463 -0.3551349 -0.22024293
0002f0 49 7a 54 3e ff 63 07 3e 29 95 4f be ab 0c 44 be
       0.20749773 0.13221739 -0.20271744 -0.19145457
000300 9e f5 87 be 89 77 cc 3d 17 b5 3c 3e a2 08 91 3d
       -0.2655458 0.09983737 0.18428455 0.07081725
000310 1e f5 4f bd 85 db 97 be 4c bb 36 be c0 27 3b 3e
       -0.05077087 -0.29659668 -0.17844886 0.18276882
000320 25 d4 45 3e 55 63 b3 be c5 25 ae 3d 59 8c 65 3e
       0.19319208 -0.35036722 0.08503298 0.2241682
000330 2b 39 8b be 23 4e f5 be 05 e5 bf 3d 49 fa b5 3e
       -0.27192053 -0.47911176 0.09369854 0.35542515
000340 ab d7 47 be ec 4d 68 bd 72 8f 85 3e ad 53 2f be
       -0.19515865 -0.056714937 0.26086003 -0.17121764
000350 44 83 a2 be d9 ee 9e be 67 40 d3 be 8a 2d 17 3c
       -0.31740773 -0.310416 -0.41260073 0.009227166
000360 35 13 f2 3c 41 7d a2 3e 32 cd c6 bd 65 f5 3a 3e
       0.029550174 0.31736186 -0.09707107 0.18257673
000370 7c e8 a9 3a f1 89 c0 3e 79 2c 8a 3e bf b8 49 be
       0.0012962963 0.3760524 0.26987055 -0.19699381
000380 01 ff 8d be 9c 38 13 3e f1 61 a2 be e8 29 30 be
       -0.27733615 0.14377064 -0.31715348 -0.17203486
000390 8a aa 40 3e 35 ee 8c bd 85 bb e8 3e aa 61 ac be
       0.18815055 -0.06881372 0.45455566 -0.33668262
0003a0 7f 61 83 be c7 d4 b6 bd 29 98 39 3e d1 47 4a 3e
       -0.2566032 -0.08927303 0.1812445 0.19753958
0003b0 5c 21 f7 be af e3 75 3e f2 c8 9a be 77 31 c0 3e
       -0.4826764 0.24012636 -0.30231434 0.3753774
0003c0 a7 2f bf 3d a2 af 36 3e a3 fb c0 3e 6d 5e ef be
       0.09335261 0.17840436 0.37691984 -0.4675173
0003d0 b0 7b 8f bd 7a 75 49 3e 69 82 cc 3d d0 ad e7 bd
       -0.070060134 0.1967372 0.09985811 -0.11312449
0003e0 ee 5f 90 be 8a dd d7 be 0d 76 0e bf 86 50 83 be
       -0.2819819 -0.42161208 -0.5564888 -0.25647372
0003f0 3b 42 b4 be e0 f6 f4 3e 08 2c 6e be d9 95 fd 3e
       -0.3520678 0.478446 -0.23258984 0.49528387

conv2_actor.bias f4 [128]
000000 4d 9c 51 bd 00 32 50 3e c0 a4 d5 3d 28 03 bd bd
       -0.05117445 0.20331573 0.10431814 -0.09229118
000010 81 32 48 3e b4 ae 25 be 57 d8 83 be 06 6d 41 bd
       0.19550516 -0.16179925 -0.25750992 -0.047223113
000020 45 9a b8 3d 0f fb 56 be 42 1c 6b 3d 65 1a ce bd
       0.090137996 -0.20994209 0.057399996 -0.10063628
000030 03 62 45 3e d8 25 cd 3e ac f8 2f be ba ac b4 3e
       0.1927567 0.40067935 -0.17184705 0.3528803
000040 0a b3 e4 39 97 0f 99 3e 4e 24 c7 bc 2b b4 8d 3e
       0.00043620943 0.29894707 -0.024309304 0.2767652
000050 a2 c2 27 bb ea f9 af bd 49 b2 da 3e a9 b2 9f 3d
       -0.0025598188 -0.08592589 0.42714146 0.077977486
000060 f5 60 06 3e ba f9 28 bd 78 1d ce 3e 7c 44 38 bc
       0.13122924 -0.041253783 0.40256858 -0.011246797
000070 b9 f5 94 3d c1 61 1e bd 22 b3 08 3d fa 77 61 bc
       0.072734304 -0.038667444 0.03337396 -0.013761515
000080 2a 07 19 bd e1 25 bd bc f3 5a 23 be f3 9f aa 3e
       -0.037360348 -0.023089351 -0.15952663 0.33325157
000090 cb 08 7c bc 3c e5 f8 bd bd 27 a2 3c f5 c9 8a bc
       -0.015382956 -0.12153098 0.01979434 -0.016942004
0000a0 9f 70 aa 3d 48 e9 86 be 1a 18 41 3e a5 ea 24 bc
       0.08322262 -0.26349854 0.1885685 -0.010065709
0000b0 1b e9 cd bb fd df 91 bc 34 87 6e 3e 33 bd 76 3d
       -0.006283892 -0.017807001 0.23293763 0.06023903
0000c0 06 7d ce 3e 70 9d 8b be e9 ca 9d be 06 38 0b 3d
       0.4032976 -0.27268553 -0.3081887 0.033988975
0000d0 76 df 5a be fe 3a 2f 3d 8b 60 1f 3e 77 8a 2f 3e
       -0.21374306 0.04278087 0.15564172 0.17142664
0000e0 9a e1 4f be a2 ae e4 bd f6 3e ef bd 63 d4 da bc
       -0.20300904 -0.11166121 -0.11681931 -0.026712602
0000f0 d5 e4 8e bd 4a e1 7d be d1 15 a1 bd 3b a7 8a be
       -0.0697724 -0.24792972 -0.07865489 -0.27080712
000100 16 38 b8 bd 86 d9 aa 3d b0 fb 84 3c e7 91 8e 3e
       -0.089950725 0.083422706 0.016233295 0.2784569
000110 0c 5d 3f 3e 37 c2 91 3e b8 e1 b3 3d e1 3d 93 3d
       0.18687838 0.28468487 0.08783287 0.07189537
000120 2d 56 77 bd e0 21 b2 be c4 ad ac be df 8b 0d 3d
       -0.060384918 -0.3479147 -0.33726323 0.03455722
000130 50 b0 58 be 61 da b7 bc 6d 13 eb 3d 8d 08 88 be
       -0.21161008 -0.022442998 0.114783145 -0.26569024
000140 86 eb 47 be 6d 1f fe 3d ac a6 58 bd 80 0f 16 be
       -0.19523439 0.12408338 -0.052893326 -0.1465435
000150 9d ac 13 3d 46 96 e6 bd fb e1 5f bc d7 90 96 bd
       0.03605329 -0.11259131 -0.013664718 -0.07351845
000160 bd 3f df bd d0 4c 9c bd 6d 04 e9 3c 72 de d0 bd
       -0.10900829 -0.07631838 0.028444493 -0.10198678
000170 0c 54 26 3e 4a d8 8e 3e e2 bc bf 3d 2f 97 60 be
       0.16242999 0.2789939 0.093621984 -0.21932672
000180 84 52 ef 3d 39 ad 49 3e e8 bc 75 bd f8 b8 4a be
       0.116856605 0.19694985 -0.05999461 -0.19797122
000190 ce af 9f be 27 66 e1 bd 01 48 da bd d8 60 bf 3c
       -0.31188816 -0.11005812 -0.10658265 0.023361608
0001a0 cf 05 aa be d3 ce 2c 3d b5 2d c8 3c f5 69 a6 3e
       -0.33207557 0.04218943 0.024435857 0.32502714
0001b0 ea ae f2 3d 9a 09 db bc 46 ac c3 3e be 36 6a 3e
       0.118497685 -0.026737977 0.38217372 0.22872445
0001c0 69 8e af bb 16 1a a3 bd 58 97 91 bd 8a 00 4b 3e
       -0.005357553 -0.0796396 -0.07108945 0.19824424
0001d0 d8 e4 40 bd 2a 60 e7 bb 10 34 04 be 20 31 60 3a
       -0.047093242 -0.007061024 -0.12910485 0.0008552242
0001e0 b6 c4 98 3c 2c cc 10 3e 11 22 45 3d 2d bc cd bd
       0.018648487 0.14140385 0.04812819 -0.10045657
0001f0 bc 7b 20 3d 85 bd 51 bd 8e 7d ea 3c 8d 0c ed 3d
       0.039180502 -0.05120613 0.028624322 0.115746595

conv3_actor.weight f4 [128, 6]
000000 0e f8 14 3d 36 18 38 be 28 a0 6f bd f7 5d 5e 3e
       0.036369376 -0.17977986 -0.058502346 0.21715532
000010 36 b9 f0 bd 7c 31 61 be 1a 86 82 bc cc a2 c3 3e
       -0.11754076 -0.21991533 -0.015933085 0.38210142
000020 f7 c5 96 be 44 f1 b0 3d 07 af e8 bd 4c e6 8f be
       -0.2944791 0.08639768 -0.11361509 -0.2810539
000030 e9 a3 b5 3d f7 ee 11 bc 0f 91 1d be 95 8b d9 be
       0.08869154 -0.008907071 -0.15387367 -0.42489305
000040 9d 3c 18 3e 5c af 8e bc 91 b5 d3 3d c0 41 a4 bd
       0.14866872 -0.017417602 0.103373654 -0.08020353
000050 62 91 47 3d d1 43 5f 3e ce 52 6d bd fc fa f3 3d
       0.048722632 0.21803214 -0.057940297 0.11913106
000060 7c 26 d8 be 33 15 88 3e 5f a0 61 be 91 ed d1 be
       -0.4221686 0.26578674 -0.22033833 -0.4100156
000070 e5 17 aa 3e 54 f7 ee 3c 4b bd a9 be 0d 3d 96 3e
       0.33221355 0.02917067 -0.33152232 0.29343453
000080 52 1b 71 ba be da 93 3d 6b 8e 0e 3e 5e f2 79 be
       -0.00091974915 0.07219456 0.13921516 -0.24408862
000090 42 09 c0 be b4 38 6c 3e bc 6b 7e 3e c0 bc 88 bd
       -0.37507063 0.23068506 0.24845785 -0.06676626
0000a0 50 6d ba bd 57 b2 e1 3c 9d 6c d3 bd c9 8c ae be
       -0.09102881 0.02755086 -0.10323451 -0.34091786
0000b0 c8 8e 3c 3e 5e a4 c9 be 62 5c 41 bd 70 d6 30 3e
       0.18413842 -0.39383215 -0.047207244 0.17269301
0000c0 e6 85 e0 be 9a fd f7 3d 79 a3 79 be 92 fb 7e 3d
       -0.43852156 0.121089175 -0.24378766 0.062251635
0000d0 0a 7e 1a be b9 bc 71 3e 33 60 8a bb 8a 36 42 be
       -0.15087143 0.23607148 -0.0042228936 -0.18966118
0000e0 e1 4e 03 be 81 dc 5b 3e 2c bc af be 07 86 7b 3e
       -0.12823059 0.21470834 -0.3432325 0.24562846
0000f0 68 10 c2 be ef 14 92 3e b4 df 83 bc cd 8c 1c 3e
       -0.37903142 0.28531596 -0.01609788 0.15288086
000100 e5 15 95 3e 51 5a 35 3e 6b 44 9e 3e 72 e3 3e be
       0.29118267 0.17710234 0.30911574 -0.18641451
000110 29 99 19 bd 5f db f7 bc 4d f7 af 3d 53 0d 47 3d
       -0.03749958 -0.030255971 0.08592091 0.04859669
000120 54 0f 87 bd d4 01 b1 3b 9d 4c 18 3e 0e ba 87 3e
       -0.065947205 0.0054018293 0.14872976 0.26509136
000130 7d 30 7a be b4 d4 a6 bd 65 c8 93 be c7 e0 f6 3d
       -0.2443256 -0.08146039 -0.28863826 0.120545916
000140 b6 4a b9 3d e2 67 68 3e 96 d4 a8 3e 2f 24 a1 3e
       0.09047453 0.22695878 0.3297469 0.31472918
000150 f4 df ad 3d d7 b2 20 be 8b 6d 44 be 04 ba 9f bd
       0.08489981 -0.15693222 -0.19182412 -0.077991515
000160 e8 50 83 3d ae 4a 87 3c a9 73 dc 3d 69 c6 9a 3e
       0.06411916 0.016515102 0.10764248 0.302295
000170 93 7f bc 3e e5 47 ac bd c7 f2 ea bd 37 9c 9a 3d
       0.3681608 -0.0841215 -0.11472087 0.07549327
000180 19 f0 cf 3e 85 ce 77 3c 12 45 b7 3e 70 26 29 bd
       0.40612867 0.015124922 0.35794884 -0.041296422
000190 b4 56 1b bd 1f 99 bf be 50 55 d2 3d ba 83 57 3e
       -0.037924483 -0.3742151 0.10270178 0.21046343
0001a0 65 9c a8 3d 6b 33 92 3e ef 46 d4 be b7 3f ef 3c
       0.08232955 0.28554854 -0.41460368 0.029205186
0001b0 81 ec 7a 3e bb e8 86 be 9c 3d 21 be 22 58 df be
       0.24504282 -0.26349434 -0.15746158 -0.43621927
0001c0 2f 86 3d 3d d3 c7 2f 3e 58 70 6e 3e dc ef 71 3d
       0.046270546 0.1716607 0.23285043 0.05906664
0001d0 e0 79 17 bd 90 66 b1 3d cc 0d b4 be c2 6d d6 bd
       -0.036981463 0.0866214 -0.35166776 -0.104701534
0001e0 99 54 09 3e 9a f8 a7 be 18 93 cc 3e a7 67 0b 3e
       0.13411178 -0.32806855 0.39955974 0.13613759
0001f0 86 16 c4 be 7e 5e b4 be c5 04 ae bd 47 72 94 be
       -0.38298434 -0.35228342 -0.084970035 -0.28993437
000200 d9 e4 c9 be c8 54 ae be 80 a3 cc 3e 54 64 db bd
       -0.3943241 -0.34049058 0.3996849 -0.107124954
000210 ec 7e 19 bc 0c 3e 8d 3e 23 4c 8a be ad d1 31 3d
       -0.009368639 0.275864 -0.27011213 0.043412853
000220 25 12 aa 3e 14 7f 45 be 58 64 a8 3e 22 a3 7f be
       0.33216968 -0.19286758 0.32889056 -0.24964574
000230 f8 0e a7 bd a5 f0 2b be 3d 6a b9 be 1a 4b 95 3e
       -0.08157152 -0.16791017 -0.36213866 0.2915886
000240 e4 01 ad be 8d af a0 be d8 1e 73 be bb 7b be bd
       -0.33790505 -0.31383935 -0.23742235 -0.093009435
000250 b4 71 f4 bd da 3c b7 be ce 1f a8 be e4 2b df 3d
       -0.1193575 -0.35788614 -0.32836765 0.10897043
000260 e3 dc a8 3e 29 58 0a be 5b a2 2e 3e f2 ca 93 bb
       0.32981023 -0.13510193 0.17054121 -0.004510277
000270 07 a7 30 bc 4f 9c dc be ab b2 de be 57 20 07 be
       -0.01078201 -0.43088004 -0.43495688 -0.1319593
000280 f0 74 3a be b5 5d 56 3e 38 74 38 be b4 9e b8 be
       -0.1820867 0.20934184 -0.18013084 -0.3605858
000290 e5 c7 87 3d f5 19 9d be cb d8 71 bd 5a b3 ba be
       0.06629924 -0.30683866 -0.05904464 -0.3646496
0002a0 52 0f 8b be 73 a2 56 3e 4a 1d 8f 3d 5f cf 9c 3d
       -0.27160126 0.20960407 0.06988008 0.076567404
0002b0 85 c0 b8 bd 08 c6 41 3e bb 14 b0 bd 91 b7 b0 be
       -0.09021095 0.18923199 -0.08597704 -0.3451505
0002c0 4b 3c 11 3e 7f 6a b0 be f3 ce fd 3d 2e af 5b bd
       0.14183156 -0.3445625 0.12392988 -0.05363386
0002d0 74 e9 70 be ca 22 82 bd 5b d9 94 3e ed 15 80 3c
       -0.23526555 -0.06354292 0.2907208 0.015635455
0002e0 bc fb ab 3e 40 e9 b7 be e3 e4 a0 3d 41 9f a9 3e
       0.33590496 -0.35920143 0.07856157 0.33129314
0002f0 a9 c9 bc 3e 11 40 2a be 82 5e c2 be 40 36 27 be
       0.36872604 -0.16626002 -0.3796273 -0.16329288
000300 c2 91 29 be 91 38 53 be 62 04 58 be c1 ac c8 be
       -0.16559508 -0.20627047 -0.21095422 -0.391943
000310 4a dc bf 3e 5d 38 29 be 11 55 c6 3e f7 31 4b be
       0.37472755 -0.16525407 0.38736776 -0.19843279
000320 ee 46 75 be e6 50 72 3e 82 4f bd 3e b2 7d c1 be
       -0.23952839 0.23663673 0.36974722 -0.3779121
000330 4c 65 58 be 75 29 22 3e 65 6e 6d be 4a 1c 03 3e
       -0.21132392 0.15836127 -0.23186643 0.1280376
000340 8a 9d 83 be e0 e2 b7 3d 45 14 77 be e5 b2 7d 3d
       -0.2570613 0.0897882 -0.24128826 0.061938185
000350 9d eb 2c 3e 8a 93 cf bd 41 6e 5b be b8 9b 29 be
       0.16886754 -0.10135563 -0.21428777 -0.16563308
000360 7d 48 ee 3d e8 e3 6d be bb e3 eb 3d 48 61 0c be
       0.1163492 -0.2323147 0.115180455 -0.13708985
000370 66 54 87 be 3f 4b 49 3d 10 8b ad bd 02 41 7a 3e
       -0.26431578 0.049144026 -0.0847379 0.24438861
000380 d0 71 c6 be ce cc 14 3e ea 9e a2 3e e5 c4 9a be
       -0.38758707 0.14531252 0.31761867 -0.30228344
000390 8d b8 8a be 92 c3 6f be 75 c5 b5 be 5e 49 fc 3d
       -0.27093926 -0.23414448 -0.3550221 0.12318681
0003a0 c1 fe 10 bd 57 2c ab be 5e 9f d2 be e1 1d 40 bd
       -0.035399202 -0.33432266 -0.41137213 -0.046903495
0003b0 26 f9 97 3c 43 f8 05 bf b8 e3 e6 3d a4 86 1f 3d
       0.01855142 -0.5233194 0.11273903 0.038946763
0003c0 73 2f 07 3e 04 ba 56 3d 36 43 95 3e d3 58 86 3e
       0.13201694 0.052423492 0.2915284 0.26239643
0003d0 c2 19 df be 57 af 8e 3b 83 ef 60 be 4b be bb be
       -0.4357434 0.004354398 -0.21966366 -0.3666862
0003e0 bd 12 0a 3e a0 8d 0d be 06 7f 30 be 31 4d 5d be
       0.1348371 -0.13823557 -0.17235956 -0.21611477
0003f0 ed 2d 99 3e 9f a0 5a 3e f0 a8 76 3e ce f4 93 be
       0.2991785 0.21350335 0.24087882 -0.2889771

conv3_actor.bias f4 [128]
000000 d2 a4 9a be 2f be cc bd ca 2f 75 3e c1 5e e6 be
       -0.30203873 -0.09997212 0.23944011 -0.44994166
000010 3c 74 d1 bd 46 58 2b 3e e6 51 71 bd 73 60 cd 3c
       -0.10227248 0.16732892 -0.058915995 0.025070405
000020 b1 19 5c be 2b 6f 10 be ec e8 28 be 2b f6 2e be
       -0.21494175 -0.14104907 -0.16495103 -0.17086093
000030 73 95 2b 3e 70 25 d5 be b5 a3 a3 3d 9f a5 a2 be
       0.16756229 -0.41630125 0.07990209 -0.31766984
000040 4c 5b 04 be c5 39 b1 3d 44 73 6e 3d fa 32 78 3e
       -0.12925452 0.08653597 0.058215395 0.24238196
000050 1d 19 19 3e 2e 93 2f 3e 65 ee 8f be 58 b0 15 be
       0.14950986 0.17145988 -0.28111568 -0.14618051
000060 10 3f 8d be 63 3e b4 be 5e 08 67 3e 17 da b8 be
       -0.27587175 -0.35203847 0.22561786 -0.3610389
000070 26 17 fb be 52 41 85 3e 69 66 e3 3d 0b bc 86 3e
       -0.49041098 0.26026398 0.111035176 0.2631534
000080 2f 50 4d bd 36 24 32 3e 5b 1e e4 3d 95 80 aa bd
       -0.050125297 0.17396626 0.11138602 -0.08325306
000090 a5 f9 48 3d 0e 40 27 3e 0d 0f 6e bd 73 1f 73 3e
       0.049066205 0.16333029 -0.058119822 0.23742466
0000a0 c0 fc ef 3d da 64 cd bd a0 a4 04 3e 8e 87 89 bd
       0.1171813 -0.100290015 0.12953424 -0.06715308
0000b0 65 f4 a6 be 4b 7b 03 3e f8 5d 2f be 6c 93 0c be
       -0.32608333 0.12840001 -0.1712569 -0.13728112
0000c0 2d ad 4c 3e 49 2c 86 be 7b 7f a7 3e d2 fd c7 be
       0.19987936 -0.26205662 0.32714447 -0.39060837
0000d0 12 23 ef 3c a3 6a 2a be 8a 3b bb bd 37 05 63 3e
       0.029191528 -0.16642241 -0.091422155 0.22169958
0000e0 68 d0 2f 3e 5a 0d 86 bd 84 75 28 3d 1e 99 1c bd
       0.17169344 -0.06545515 0.041127697 -0.03823196
0000f0 c2 85 ac be bc 08 39 be 64 1e 5b bd ae 60 bb be
       -0.336958 -0.18069738 -0.05349578 -0.36597198
000100 f6 ac aa 3c 86 ef ae 3e de 70 4a 3e 84 63 6b 3e
       0.020834427 0.34167117 0.19769618 0.22987181
000110 f1 d7 79 be d9 f4 68 be 26 63 53 3e c5 dd 2e bd
       -0.24398781 -0.22749652 0.20643291 -0.042691965
000120 62 39 bf 3e be f3 6c be 2e c0 8c 3e 23 70 ca be
       0.37348467 -0.23139855 0.2749037 -0.3953868
000130 b1 4d 81 be bd f1 8d 3e 0a 0e 30 3e 50 75 c0 be
       -0.25254586 0.27723494 0.17192855 -0.37589502
000140 b6 c2 0c be a2 af 37 be ba a0 f5 bd 08 91 a6 be
       -0.13746151 -0.17938092 -0.11993547 -0.32532525
000150 60 e3 b6 3b 89 71 e5 3d 94 d5 bf 3c 76 dd 52 be
       0.0055813044 0.11203296 0.023417272 -0.20592293
000160 7a 07 86 be f9 24 db 3c 27 6d 8e 3e 96 c8 98 be
       -0.2617758 0.026751028 0.27817652 -0.29840535
000170 3b 1b 19 be d3 84 95 bd 7b 8e cc be 55 39 77 be
       -0.14951794 -0.07300725 -0.39952454 -0.24142964
000180 ce eb 1b 3e 9a 6d 96 3d d3 6c 86 be e4 1d 6a 3e
       0.15226671 0.073451236 -0.262549 0.22862965
000190 87 e2 14 3e cb 87 bd 3e 0c 1d 95 bd a4 b0 92 be
       0.14539538 0.37017664 -0.07280931 -0.2865039
0001a0 ab 78 96 bd 08 0b c7 be a6 79 69 3c 26 a2 5c be
       -0.07347234 -0.38875604 0.014250195 -0.2154623
0001b0 2b 7a 8b 3e db 20 14 3e 37 ac a1 3b 2a 67 ae 3d
       0.27241644 0.14465658 0.0049338597 0.08515771
0001c0 f8 bc 65 3e c2 9b 75 3d 77 66 60 be fb 47 28 3e
       0.22435367 0.059962995 -0.21914087 0.16433708
0001d0 d4 54 7a be b4 7f c0 bd 0f 3d f8 bd e2 44 98 3e
       -0.24446422 -0.093993574 -0.12121021 0.29740053
0001e0 71 d3 9b 3e d8 18 5f bd 77 7d 80 be 00 10 a8 be
       0.30434754 -0.054467052 -0.25095722 -0.32824707
0001f0 d0 a9 7d bc 33 3c e7 be e2 18 94 3d bf 11 c4 be
       -0.015482381 -0.45163116 0.072313085 -0.3829479

fc3_actor.weight f4 [128, 1]
000000 00 3e d8 bd 9a 65 15 bf 60 cc 0f 3d 08 bf 50 be
       -0.105587006 -0.58358157 0.035107017 -0.20385373
000010 85 cf b0 bf 40 04 b7 bf 2e 7d 08 be e0 a3 11 3d
       -1.381333 -1.4298172 -0.13329002 0.035556674
000020 8c 71 33 3f 50 d1 37 3e 9c 2d cf 3e c0 2a 21 3e
       0.70095134 0.1795094 0.40464485 0.15738964
000030 f0 8c 35 3e e5 80 4a bf 68 bf 32 be 13 76 3d bf
       0.17729545 -0.7910293 -0.17455828 -0.7400829
000040 64 ab 77 bf ac c5 6c bf 11 28 24 3d bc 99 28 bf
       -0.96745896 -0.92489123 0.040077273 -0.6585958
000050 98 24 ee 3c ca a3 49 bf dd 41 09 be 32 40 61 bf
       0.029070184 -0.7876555 -0.13404031 -0.8798858
000060 f2 08 85 3e 80 8c 74 3d 35 c4 92 3e 06 c0 44 3e
       0.25983387 0.059704304 0.2866532 0.19213876
000070 d9 68 5b be b2 73 4f 3f 30 34 da 3e 23 ac a9 3e
       -0.21426715 0.8103591 0.4261794 0.33139142
000080 dc 07 56 3d 24 b1 6d bf fe 89 be bf 08 8f a5 3e
       0.05225359 -0.9284842 -1.4885862 0.32335687
000090 a2 1a 53 bc 82 2b 23 3f 43 c9 01 3e 82 d0 91 3e
       -0.012884768 0.6373826 0.12674432 0.2847939
0000a0 31 2c 72 3f e8 47 da 3e c6 85 03 bf 50 2b 5c 3e
       0.9459868 0.42632985 -0.51376 0.21500897
0000b0 3f db 17 be 00 2e 1f bc 94 5a 46 bf 07 12 05 3f
       -0.1482973 -0.009715557 -0.7748196 0.5198063
0000c0 a0 8a 31 3f 9c 8e 0f 3f 47 ad 1e 3e 30 79 05 bd
       0.6935215 0.5607698 0.15495788 -0.032586277
0000d0 30 43 d0 3d bf a3 b4 bf 03 16 90 3d 68 52 4f 3e
       0.10169065 -1.4112471 0.070354484 0.20246279
0000e0 10 21 6c 3e 24 a1 67 bf 39 82 2a bf 20 82 92 be
       0.23059487 -0.90480256 -0.66604954 -0.28614902
0000f0 28 5c f4 3e fe 72 46 bf 40 ad 59 be 5e b4 70 bf
       0.4772656 -0.77519214 -0.21257496 -0.9402522
000100 2a 2b 18 3e 93 79 36 bd 11 1b 10 bf da 14 44 bc
       0.14860216 -0.044549536 -0.562913 -0.011967862
000110 84 7d d6 be 1e db 69 bf 88 4b 2c bf 2c 3d 30 bf
       -0.41892636 -0.9134997 -0.6730275 -0.6884334
000120 98 a7 85 3e 78 60 a6 be 4d 05 97 bf a3 99 fe be
       0.26104426 -0.32495475 -1.1798493 -0.4972659
000130 05 d0 90 bf ce e4 0d bf d0 fe 3e bf 8c 43 51 3e
       -1.1313483 -0.55427253 -0.74607563 0.20435923
000140 f8 5d 2b bd f0 5b d7 be e8 10 4d 3e 5a e7 0e bf
       -0.041837662 -0.4206233 0.2002598 -0.55821764
000150 06 14 b2 be 00 3b f0 bd e9 1f 00 be 56 5f f9 3d
       -0.34780902 -0.11730003 -0.12512173 0.12176387
000160 60 28 d4 3e 5d 9d 77 3f 20 a3 0c bf 5a 8f 1d bf
       0.41437054 0.9672449 -0.5493641 -0.6154686
000170 ec ae 7f bf 29 2a 0b 3f 8d 5d d6 3e f0 af 8f 3d
       -0.99876285 0.54361206 0.4186825 0.07015979
000180 fa a6 1f 3f 5b 99 f2 bd 6c c2 36 bf 3d 12 13 3e
       0.6236416 -0.118456565 -0.71390414 0.14362426
000190 7b 3c 06 bf 85 8b 2b bf 10 b2 44 3d 3d cc 23 be
       -0.52436036 -0.67009765 0.048021376 -0.1599588
0001a0 12 78 0b 3f da 28 20 bf 21 40 d5 3e fb 83 63 bd
       0.5448009 -0.62562335 0.4165049 -0.05554579
0001b0 1a 89 07 bf 2b c6 03 3f bf de ba 3e be 53 3b 3e
       -0.52943575 0.51474255 0.36498067 0.18293664
0001c0 ac 5a f2 be 55 5b 01 3e ca 07 6e bf 00 04 3e be
       -0.47334802 0.12632497 -0.92980635 -0.18556213
0001d0 58 54 35 3e 70 98 ec bd c6 8c de be 7a 6e 18 3f
       0.17707956 -0.11552513 -0.43466777 0.59543574
0001e0 f9 b8 22 bf e6 0f c4 3e f3 a0 2c 3f 2c 4b a5 be
       -0.63563496 0.3829338 0.6743309 -0.32283914
0001f0 d8 6e be 3e e4 af d2 be 68 e7 01 bf f2 dd 47 3d
       0.37193942 -0.4114982 -0.5074372 0.048795648
